…
25-05-12 16:34:40.888 - INFO: Number of val images in [val_Saffron]: 100
25-05-12 16:34:41.354 - INFO: Initialization method [kaiming]
25-05-12 16:34:46.890 - INFO: Initialization method [kaiming]
25-05-12 16:34:47.195 - INFO: Loading pretrained model for G [./experiments/WGSR_1level/models/100000_G.pth] ...
25-05-12 16:34:47.366 - INFO: Loading pretrained model for D [./experiments/WGSR_1level/models/100000_D.pth] ...
25-05-12 16:34:48.735 - INFO: Network G structure: DataParallel - RRDBNet, with parameters: 16,736,646
25-05-12 16:34:48.735 - INFO: RRDBNet(
  (feature_extraction): Sequential(
    (0): Sequential(
      (0): Conv2d(3, 64, kernel_size=(3, 3), stride=(1, 1), padding=(1, 1))
    )
  )
  (residual_blocks): ModuleList(
    (0-22): 23 x RRDB(
      (RDB1): ResidualDenseBlock_5C(
        (conv1): Sequential(
          (0): Conv2d(64, 32, kernel_size=(3, 3), stride=(1, 1), padding=(1, 1))
          (1): LeakyReLU(negative_slope=0.2, inplace=True)
        )
        (conv2): Sequential(
          (0): Conv2d(96, 32, kernel_size=(3, 3), stride=(1, 1), padding=(1, 1))
          (1): LeakyReLU(negative_slope=0.2, inplace=True)
        )
        (conv3): Sequential(
          (0): Conv2d(128, 32, kernel_size=(3, 3), stride=(1, 1), padding=(1, 1))
          (1): LeakyReLU(negative_slope=0.2, inplace=True)
        )
        (conv4): Sequential(
          (0): Conv2d(160, 32, kernel_size=(3, 3), stride=(1, 1), padding=(1, 1))
          (1): LeakyReLU(negative_slope=0.2, inplace=True)
        )
        (conv5): Sequential(
          (0): Conv2d(192, 64, kernel_size=(3, 3), stride=(1, 1), padding=(1, 1))
        )
      )
      (RDB2): ResidualDenseBlock_5C(
        (conv1): Sequential(
          (0): Conv2d(64, 32, kernel_size=(3, 3), stride=(1, 1), padding=(1, 1))
          (1): LeakyReLU(negative_slope=0.2, inplace=True)
        )
        (conv2): Sequential(
          (0): Conv2d(96, 32, kernel_size=(3, 3), stride=(1, 1), padding=(1, 1))
          (1): LeakyReLU(negative_slope=0.2, inplace=True)
        )
        (conv3): Sequential(
          (0): Conv2d(128, 32, kernel_size=(3, 3), stride=(1, 1), padding=(1, 1))
          (1): LeakyReLU(negative_slope=0.2, inplace=True)
        )
        (conv4): Sequential(
          (0): Conv2d(160, 32, kernel_size=(3, 3), stride=(1, 1), padding=(1, 1))
          (1): LeakyReLU(negative_slope=0.2, inplace=True)
        )
        (conv5): Sequential(
          (0): Conv2d(192, 64, kernel_size=(3, 3), stride=(1, 1), padding=(1, 1))
        )
      )
      (RDB3): ResidualDenseBlock_5C(
        (conv1): Sequential(
          (0): Conv2d(64, 32, kernel_size=(3, 3), stride=(1, 1), padding=(1, 1))
          (1): LeakyReLU(negative_slope=0.2, inplace=True)
        )
        (conv2): Sequential(
          (0): Conv2d(96, 32, kernel_size=(3, 3), stride=(1, 1), padding=(1, 1))
          (1): LeakyReLU(negative_slope=0.2, inplace=True)
        )
        (conv3): Sequential(
          (0): Conv2d(128, 32, kernel_size=(3, 3), stride=(1, 1), padding=(1, 1))
          (1): LeakyReLU(negative_slope=0.2, inplace=True)
        )
        (conv4): Sequential(
          (0): Conv2d(160, 32, kernel_size=(3, 3), stride=(1, 1), padding=(1, 1))
          (1): LeakyReLU(negative_slope=0.2, inplace=True)
        )
        (conv5): Sequential(
          (0): Conv2d(192, 64, kernel_size=(3, 3), stride=(1, 1), padding=(1, 1))
        )
      )
    )
  )
  (lr_conv): Sequential(
    (0): Conv2d(64, 64, kernel_size=(3, 3), stride=(1, 1), padding=(1, 1))
  )
  (upsampler): Sequential(
    (0): Sequential(
      (0): Upsample(scale_factor=2.0, mode='nearest')
      (1): Conv2d(64, 64, kernel_size=(3, 3), stride=(1, 1), padding=(1, 1))
      (2): LeakyReLU(negative_slope=0.2, inplace=True)
    )
    (1): Sequential(
      (0): Upsample(scale_factor=2.0, mode='nearest')
      (1): Conv2d(64, 64, kernel_size=(3, 3), stride=(1, 1), padding=(1, 1))
      (2): LeakyReLU(negative_slope=0.2, inplace=True)
    )
  )
  (hr_conv0): Sequential(
    (0): Conv2d(64, 64, kernel_size=(3, 3), stride=(1, 1), padding=(1, 1))
    (1): LeakyReLU(negative_slope=0.2, inplace=True)
  )
  (hr_conv1): Sequential(
    (0): Conv2d(64, 3, kernel_size=(3, 3), stride=(1, 1), padding=(1, 1))
  )
  (hr_conv2): Sequential(
    (0): Conv2d(64, 64, kernel_size=(3, 3), stride=(1, 1), padding=(1, 1))
    (1): LeakyReLU(negative_slope=0.2, inplace=True)
  )
  (hr_conv3): Sequential(
    (0): Conv2d(64, 3, kernel_size=(3, 3), stride=(1, 1), padding=(1, 1))
  )
)
25-05-12 16:34:48.736 - INFO: Network D structure: DataParallel - Discriminator_VGG_128, with parameters: 14,502,281
25-05-12 16:34:48.736 - INFO: Discriminator_VGG_128(
  (features): Sequential(
    (0): Conv2d(3, 64, kernel_size=(3, 3), stride=(1, 1), padding=(1, 1))
    (1): LeakyReLU(negative_slope=0.2, inplace=True)
    (2): Conv2d(64, 64, kernel_size=(4, 4), stride=(2, 2), padding=(1, 1))
    (3): BatchNorm2d(64, eps=1e-05, momentum=0.1, affine=True, track_running_stats=True)
    (4): LeakyReLU(negative_slope=0.2, inplace=True)
    (5): Conv2d(64, 128, kernel_size=(3, 3), stride=(1, 1), padding=(1, 1))
    (6): BatchNorm2d(128, eps=1e-05, momentum=0.1, affine=True, track_running_stats=True)
    (7): LeakyReLU(negative_slope=0.2, inplace=True)
    (8): Conv2d(128, 128, kernel_size=(4, 4), stride=(2, 2), padding=(1, 1))
    (9): BatchNorm2d(128, eps=1e-05, momentum=0.1, affine=True, track_running_stats=True)
    (10): LeakyReLU(negative_slope=0.2, inplace=True)
    (11): Conv2d(128, 256, kernel_size=(3, 3), stride=(1, 1), padding=(1, 1))
    (12): BatchNorm2d(256, eps=1e-05, momentum=0.1, affine=True, track_running_stats=True)
    (13): LeakyReLU(negative_slope=0.2, inplace=True)
    (14): Conv2d(256, 256, kernel_size=(4, 4), stride=(2, 2), padding=(1, 1))
    (15): BatchNorm2d(256, eps=1e-05, momentum=0.1, affine=True, track_running_stats=True)
    (16): LeakyReLU(negative_slope=0.2, inplace=True)
    (17): Conv2d(256, 512, kernel_size=(3, 3), stride=(1, 1), padding=(1, 1))
    (18): BatchNorm2d(512, eps=1e-05, momentum=0.1, affine=True, track_running_stats=True)
    (19): LeakyReLU(negative_slope=0.2, inplace=True)
    (20): Conv2d(512, 512, kernel_size=(4, 4), stride=(2, 2), padding=(1, 1))
    (21): BatchNorm2d(512, eps=1e-05, momentum=0.1, affine=True, track_running_stats=True)
    (22): LeakyReLU(negative_slope=0.2, inplace=True)
    (23): Conv2d(512, 512, kernel_size=(3, 3), stride=(1, 1), padding=(1, 1))
    (24): BatchNorm2d(512, eps=1e-05, momentum=0.1, affine=True, track_running_stats=True)
    (25): LeakyReLU(negative_slope=0.2, inplace=True)
    (26): Conv2d(512, 512, kernel_size=(4, 4), stride=(2, 2), padding=(1, 1))
    (27): BatchNorm2d(512, eps=1e-05, momentum=0.1, affine=True, track_running_stats=True)
    (28): LeakyReLU(negative_slope=0.2, inplace=True)
  )
  (classifier): Sequential(
    (0): Linear(in_features=8192, out_features=100, bias=True)
    (1): LeakyReLU(negative_slope=0.2, inplace=True)
    (2): Linear(in_features=100, out_features=1, bias=True)
  )
)
25-05-12 16:34:48.736 - INFO: Model [SRRaGANModel] is created.
25-05-12 16:34:48.744 - INFO: Start training from epoch: 1, iter: 1
25-05-12 16:53:29.532 - INFO: <epoch: 25, iter:   5,000, lr:2.500e-05> l_g_pix: 2.2409e-01 l_g_pix_hm: 3.1475e-01 l_g_fea: 7.3738e-04 l_g_fea_hm: 6.9357e-03 l_g_gan: 4.7246e-02 l_g_gan_hm: 1.4803e-02 l_d_real: 8.1012e-05 l_d_fake: 7.9155e-05 l_d_real_hm: 5.5023e-02 l_d_fake_hm: 5.3372e-02 D_real: 1.0436e+01 D_fake: 9.8725e-01 D_real_hm: -1.0328e+00 D_fake_hm: -3.9392e+00 
…
